…
&lt;span class="n"&gt;model_base&lt;/span&gt;&lt;span class="o"&gt;.&lt;/span&gt;&lt;span class="n"&gt;summary&lt;/span&gt;&lt;span class="p"&gt;()&lt;/span&gt;
&lt;/pre&gt;&lt;/div&gt;

    &lt;/div&gt;
&lt;/div&gt;
&lt;/div&gt;

&lt;div class="output_wrapper"&gt;
&lt;div class="output"&gt;


&lt;div class="output_area"&gt;

    &lt;div class="prompt"&gt;&lt;/div&gt;


&lt;div class="output_subarea output_stream output_stdout output_text"&gt;
&lt;pre&gt;_________________________________________________________________
Layer (type)                 Output Shape              Param #   
=================================================================
embedding_1 (Embedding)      (None, 500, 50)           150000    
_________________________________________________________________
global_average_pooling1d_1 ( (None, 50)                0         
_________________________________________________________________
dense_1 (Dense)              (None, 64)                3264      
_________________________________________________________________
dropout_1 (Dropout)          (None, 64)                0         
_________________________________________________________________
dense_2 (Dense)              (None, 1)                 65        
=================================================================
Total params: 153,329
Trainable params: 153,329
Non-trainable params: 0
_________________________________________________________________
&lt;/pre&gt;
&lt;/div&gt;
&lt;/div&gt;

&lt;/div&gt;
&lt;/div&gt;

&lt;/div&gt;
&lt;div class="cell border-box-sizing text_cell rendered"&gt;&lt;div class="prompt input_prompt"&gt;
&lt;/div&gt;&lt;div class="inner_cell"&gt;
…
&lt;span class="n"&gt;model_cnn&lt;/span&gt;&lt;span class="o"&gt;.&lt;/span&gt;&lt;span class="n"&gt;summary&lt;/span&gt;&lt;span class="p"&gt;()&lt;/span&gt;
&lt;/pre&gt;&lt;/div&gt;

    &lt;/div&gt;
&lt;/div&gt;
&lt;/div&gt;

&lt;div class="output_wrapper"&gt;
&lt;div class="output"&gt;


&lt;div class="output_area"&gt;

    &lt;div class="prompt"&gt;&lt;/div&gt;


&lt;div class="output_subarea output_stream output_stdout output_text"&gt;
&lt;pre&gt;_________________________________________________________________
Layer (type)                 Output Shape              Param #   
=================================================================
embedding_3 (Embedding)      (None, 500, 50)           150000    
_________________________________________________________________
conv1d_1 (Conv1D)            (None, 496, 256)          64256     
_________________________________________________________________
max_pooling1d_1 (MaxPooling1 (None, 124, 256)          0         
_________________________________________________________________
dropout_3 (Dropout)          (None, 124, 256)          0         
_________________________________________________________________
conv1d_2 (Conv1D)            (None, 120, 256)          327936    
_________________________________________________________________
max_pooling1d_2 (MaxPooling1 (None, 30, 256)           0         
_________________________________________________________________
flatten_1 (Flatten)          (None, 7680)              0         
_________________________________________________________________
dropout_4 (Dropout)          (None, 7680)              0         
_________________________________________________________________
dense_5 (Dense)              (None, 128)               983168    
_________________________________________________________________
dropout_5 (Dropout)          (None, 128)               0         
_________________________________________________________________
dense_6 (Dense)              (None, 1)                 129       
=================================================================
Total params: 1,525,489
Trainable params: 1,525,489
Non-trainable params: 0
_________________________________________________________________
&lt;/pre&gt;
&lt;/div&gt;
&lt;/div&gt;

&lt;/div&gt;
&lt;/div&gt;

&lt;/div&gt;
&lt;div class="cell border-box-sizing text_cell rendered"&gt;&lt;div class="prompt input_prompt"&gt;
&lt;/div&gt;&lt;div class="inner_cell"&gt;
…
